app/two_tower_model.pth (torch, 460166 bytes, 16 tensors)

query_tower.weight_ih_l0 f4 [192, 100]
0.2454021 -0.2299017 -0.17489013 0.2950466 -0.04009107 0.099798545 -0.10293711 -0.12086093
0.14785528 0.17287911 0.06270784 0.063451074 0.13545696 -0.124081045 -0.06276231 0.065718845
-0.16673556 0.078301884 0.04531304 0.2712809 -0.2848116 -0.2849631 -0.1593941 -0.12675577
0.12224692 -0.017298605 0.17410234 -0.15524589 0.21412311 0.14939024 -0.046691116 -0.21616113
-0.2738195 0.20794332 0.06185975 -0.20540506 -0.08726677 0.14948915 0.2842672 0.19114387
-0.09578648 0.13876534 0.103638515 0.1436264 -0.20471253 0.07433915 0.1525862 -0.17741232
-0.17677619 -0.060297392 -0.12878108 0.13936892 -0.13528666 0.24186291 0.15557161 -0.2971053
-0.20817815 -0.19020554 0.14614154 0.093320474 0.1823834 0.07381635 -0.07813419 0.21831818
0.07920232 -0.27664268 0.11988407 -0.1820644 0.22059146 -0.21141405 0.07273035 -0.08873836
-0.13633299 -0.09259032 -0.17684735 -0.23549156 -0.10204669 0.106255665 0.2049741 0.29363263
0.17847809 -0.16267374 0.20900501 -0.23769629 0.07024704 -0.10703035 -0.109096214 -0.09246375
-0.23136431 -0.0863573 -0.05608 -0.25378 -0.17648481 0.022322796 -0.23493432 -0.14761418
-0.25830927 0.07634343 -0.11513288 0.15743227 -0.066955 0.17051041 -0.0043147206 -0.17613928
0.047793746 -0.13499396 0.11236026 -0.009043299 -0.12073223 0.05521888 -0.025720078 -0.09622204
-0.13666563 0.09491533 0.09393731 -0.07688451 0.05788543 -0.005340394 -0.13725184 -0.072760716
-0.038344376 0.041442566 0.006641354 0.05210849 -0.015442502 0.105670236 -0.10529863 -0.027527338
-0.026097711 -0.09495413 0.059130415 -0.0044610123 -0.07418698 -0.00087700353 -0.09912781 0.11939061
0.12776421 0.075804986 0.06659206 0.055721108 0.101223975 -0.09008398 0.031114653 -0.066694476
0.04226721 -0.13699888 -0.0325702 0.15720186 0.059120875 0.1002477 0.12307291 -0.03852273
0.08291756 -0.0820284 -0.15450864 0.099366024 0.006006207 0.0632459 -0.07632936 -0.15055151
-0.11247423 -0.019053018 0.112173006 -0.12498669 -0.13656186 0.16670345 -0.09298585 0.03950451
-0.07629092 0.06993577 -0.1410435 0.15095575 0.077476375 0.08050746 -0.020953532 0.11560397
-0.042803973 0.010473784 -0.03538594 -0.055231705 0.03245563 0.1658088 -0.14449267 0.1614741
0.029573211 0.034658812 0.15600629 0.031550772 0.085754484 0.076398164 0.022191344 0.04272621
-0.03888154 -0.16394089 -0.05228302 0.17010558 0.07834691 0.0033647623 0.100864254 -0.040569704
0.18175732 -0.10883136 -0.16486265 0.1553315 0.010319105 0.11847809 -0.14818822 -0.101580255
0.0453608 0.136872 0.21264191 0.22339384 0.07458369 -0.098354265 -0.15194246 0.00877537
-0.19029136 0.02800684 0.08804901 0.14216554 -0.10537797 -0.00027763552 -0.22077183 -0.033919737
0.18957762 -0.004479666 0.22547744 -0.020441687 0.04821336 0.19133425 -0.15899917 -0.054387286
-0.20317376 0.06145357 0.20033629 -0.12864268 -0.13585332 0.076816946 -0.014946545 0.011180504
-0.15998241 0.237349 0.047654476 0.027724227 -0.103674315 0.08620058 0.0074569094 0.024324806
-0.11734836 -0.049265612 -0.17492694 0.1350657 -0.14020431 0.017944548 0.05760988 -0.22510132
00000000: b04a 7b3e 5a6b 6bbe 6616 33be 5910 973e
00000010: 8936 24bd 2e63 cc3d b1d0 d2bd ef85 f7bd
00000020: 6067 173e 3907 313e f86c 803d a3f2 813d
00000030: 3bb5 0a3e 341e febd 8789 80bd 9a97 863d
00000040: babc 2abe bd5c a03d 2b9a 393d 55e5 8a3e
00000050: d3d2 91be afe6 91be 3538 23be 44cc 01be
00000060: 985c fa3d ceb5 8dbc e247 323e c7f8 1ebe
00000070: 1743 5b3e c1f9 183e 2f3f 3fbd 5859 5dbe
00000080: 1232 8cbe 18ef 543e a660 7d3d b455 52be
00000090: ecb8 b2bd af13 193e 788b 913e 38bb 433e
000000a0: b42b c4bd 8018 0e3e 6e40 d43d cd12 133e
000000b0: 29a0 51be 203f 983d 8f3f 1c3e 93ab 35be
000000c0: d104 35be 66fa 76bd 30df 03be bab6 0e3e
000000d0: 9688 0abe e9aa 773e 2a4e 1f3e 301e 98be
000000e0: a72c 55be 3ec5 42be 21a6 153e ce1e bf3d
000000f0: b7c2 3a3e 072d 973d d104 a0bd cd8e 5f3e
00000100: d334 a23d 1ca4 8dbe c785 f53d 176f 3abe
00000110: bae2 613e ed7c 58be a6f3 943d 75bc b5bd
00000120: e09a 0bbe fe9f bdbd 7917 35be b324 71be
00000130: dbfd d0bd 929c d93d bbe4 513e 0457 963e
00000140: f6c2 363e f293 26be 6905 563e a866 73be
00000150: aedd 8f3d ba32 dbbd d66d dfbd a25d bdbd
00000160: c4ea 6cbe 19dc b0bd 24b4 65bd 74ef 81be
00000170: 6fb8 34be 4cde b63c 9f92 70be 2c28 17be
00000180: 1d41 84be f259 9c3d caca ebbd ed35 213e
00000190: b41f 89bd 489a 2e3e 8062 8dbb db5d 34be
000001a0: 60c3 433d db3b 0abe 231d e63d 582a 14bc
000001b0: 7642 f7bd 312d 623d eab2 d2bc 1010 c5bd
000001c0: 13f2 0bbe f862 c23d 3462 c03d a075 9dbd
000001d0: 4619 6d3d 79fe aebb bf8b 0cbe 9203 95bd
000001e0: fe0e 1dbd aebf 293d b79f d93b b66f 553d
000001f0: 8c02 7dbc a369 d83d cfa6 d7bd 0381 e1bc
00000200: deca d5bc 5077 c2bd bc32 723d af2d 92bb
00000210: 58ef 97bd b6e6 65ba 8503 cbbd 1083 f43d
00000220: 9fd4 023e a53f 9b3d 6b61 883d d13b 643d
00000230: 844e cf3d f37d b8bd 28e4 fe3c 1d97 88bd
00000240: 6220 2d3d 6f49 0cbe 5468 05bd 86f9 203e
00000250: bb28 723d ab4e cd3d a60d fc3d 03ca 1dbd
00000260: afd0 a93d 81fe a7bd 8337 1ebe 6a80 cb3d
00000270: b7cf c43b 1187 813d 9152 9cbd 2d2a 1abe
00000280: e458 e6bd 1315 9cbc f6ba e53d 06f9 ffbd
00000290: dfd6 0bbe 4fb4 2a3e 5e6f bebd 7bcf 213d
000002a0: 6a3e 9cbd 7c3a 8f3d b56d 10be 2594 1a3e
000002b0: efab 9e3d 18e1 a43d bea6 abbc c6c1 ec3d
000002c0: 3853 2fbd 3c9a 2b3c d9f0 10bd a43a 62bd
000002d0: 32f0 043d c8c9 293e e3f5 13be 7759 253e
000002e0: 8543 f23c 66f6 0d3d 1dc0 1f3e 623b 013d
000002f0: 0ca0 af3d a476 9c3d 9fca b53c ae01 2f3d
00000300: 4042 1fbd 1fe0 27be b826 56bd 2830 2e3e
00000310: 5874 a03d 5883 5c3b eb91 ce3d 6b2c 26bd
00000320: 971e 3a3e fae2 debd c1d1 28be 390f 1f3e
00000330: 7711 293c a4a4 f23d a7be 17be 4f09 d0bd
00000340: 3fcc 393d 2c28 0c3e cdbe 593e 5bc1 643e
00000350: 55bf 983d f66d c9bd ce96 1bbe 92c6 0f3c
00000360: bddb 42be 9a6e e53c 0a53 b43d d893 113e
00000370: 68d0 d7bd 9c8f 91b9 0312 62be 6cef 0abd
00000380: a320 423e 29ca 92bb 8fe3 663e 5375 a7bc
00000390: 5f7b 453d 20ed 433e aed0 22be 34c5 5ebd
000003a0: c80c 50be bdb6 7b3d f524 4d3e e8ba 03be
000003b0: 221d 0bbe 3452 9d3d 5ae2 74bc 6f2e 373c
000003c0: 6ed2 23be 9e0b 733e 5731 433d eb1d e33c
000003d0: 3353 d4bd ee89 b03d 1759 f43b d144 c73c
000003e0: 5654 f0bd bdca 49bd 0c20 33be aa4e 0a3e
000003f0: b891 0fbe 7200 933c 56f8 6b3d f680 66be

query_tower.weight_hh_l0 f4 [192, 64]
-0.10034351 -0.016703518 -0.17379065 0.19040656 -0.14564493 0.20695995 0.04753946 0.007198925
-0.12078362 0.0061478866 -0.044889547 0.039722312 -0.19524178 0.017193066 0.03023366 0.042854127
-0.12493717 -0.12037856 0.08650087 -0.18125552 0.039114 -0.15991794 -0.023563115 -0.063455515
0.20156339 0.17611654 -0.19080636 -0.040645488 -0.087941036 0.14721648 -0.2047585 0.018706921
-0.042653147 -0.15690446 0.18852721 0.14486678 0.07895402 0.020539276 -0.028587356 -0.0181292
0.14531794 -0.123648465 -0.21050602 -0.15582559 0.0227059 -0.030209279 0.19064358 0.023086252
0.13404675 0.06306213 0.07889501 0.049490504 -0.14630282 0.19278184 0.003997178 -0.23185393
0.06819425 0.09577624 -0.19890797 -0.10735908 -0.009350118 0.03755568 0.22076133 0.027717877
-0.00689888 -0.052917786 -0.0021872998 0.13861552 0.058522962 -0.16082285 0.030942248 -0.03125353
0.00832072 0.012332136 -0.11856052 -0.10222683 -0.0032161726 0.12875456 -0.079830006 -0.077378176
-0.028860323 -0.03335746 -0.037116688 0.06754032 0.1062143 -0.14914745 0.019473193 0.05955983
0.01062814 0.11392699 -0.12750925 0.1626813 -0.016633071 0.0042523136 -0.09271244 0.14782196
-0.06650746 -0.17004825 0.12766472 0.2003439 -0.17456725 -0.010061671 0.0024334302 0.07655803
-0.034805402 -0.05220566 0.16073067 0.02768419 0.14584202 -0.0063589457 -0.073965415 0.07288823
0.023335323 -0.14787164 0.1557039 0.07319564 0.0237599 0.08699558 0.02189913 0.10831593
0.012394436 0.08952474 -0.030317431 -0.1854964 -0.0018566356 0.13946751 -0.032257006 0.02913237
0.18197778 -0.0345048 0.07783653 0.2423797 0.10663183 -0.30269572 -0.158392 0.06175547
0.06771806 0.054265182 0.033658855 -0.027093159 0.1625155 -0.109977864 0.1769528 -0.09876143
0.16286996 -0.15689781 -0.1035036 0.17344436 0.10174565 -0.097352795 -0.26892063 0.033222888
-0.07788857 0.086957544 0.059028186 0.062790774 0.15819268 0.0406217 0.09160222 0.2458985
0.06688532 -0.22522509 -0.00049529254 0.2939524 -0.24529731 -0.21057293 0.07849701 -0.07250025
-0.005375376 0.102137625 0.16633533 -0.06381929 0.30501586 -0.19838868 -0.11208039 0.23592709
-0.09279462 0.22621576 0.03261476 0.12625055 0.067974664 0.026187781 -0.103715576 -0.039213236
-0.025006622 0.09885749 0.025688278 -0.02033572 -0.030873671 0.24366733 0.11248874 -0.1412442
0.20685849 0.18476339 0.03351846 -0.031424686 -0.07789819 -0.0022917008 -0.036292817 -0.11403521
0.16423126 0.13394512 0.16119802 -0.0061068404 0.041135985 -0.17402333 0.035555292 -0.11365388
0.15874851 -0.06741163 0.10227179 0.1519091 0.13859141 -0.0074877385 0.04611552 0.046871558
-0.16822207 0.0031450298 0.22004484 0.11608777 0.122921616 -0.037289776 -0.023863303 0.05725748
0.13375294 -0.18691002 -0.08414304 0.14318918 0.03997227 -0.026076626 0.041018404 0.112391
-0.15755066 0.011362481 0.06631544 0.03175834 0.022948734 -0.049950875 0.06648217 0.21203868
-0.04363202 0.11477773 -0.058155987 -0.0032050393 -0.047629267 -0.090751305 0.049576465 0.17844363
-0.034121282 0.06581336 0.1101028 0.17614911 -0.06657496 0.0005689686 -0.0075235656 -0.10721158
00000000: e680 cdbd d1d5 88bc 2df6 31be f0f9 423e
00000010: f223 15be 4fed 533e bdb8 423d f6e4 eb3b
00000020: 675d f7bd 3674 c93b 1ade 37bd ddb3 223d
00000030: 76ed 47be 79d8 8c3c 95ac f73c cf87 2f3d
00000040: 0fdf ffbd 0989 f6bd 5e27 b13d 0c9b 39be
00000050: 0036 203d 87c1 23be 6f07 c1bc f7f4 81bd
00000060: a266 4e3e e557 343e be62 43be e27b 26bd
00000070: 6e1a b4bd ebbf 163e 36ac 51be 423f 993c
00000080: 11b5 2ebd 90ab 20be 470d 413e f557 143e
00000090: a5b2 a13d fc41 a83c 0830 eabc b083 94bc
000000a0: 3ace 143e 683b fdbd e48e 57be be90 1fbe
000000b0: b901 ba3c 7379 f7bc 1238 433e 611f bd3c
000000c0: 8d43 093e b826 813d b593 a13d 8eb6 4a3d
000000d0: 68d0 15be 9a68 453e c2fa 823b 1e6b 6dbe
000000e0: 6da9 8b3d 5526 c43d 88ae 4bbe 14df dbbd
000000f0: 3d31 19bc fcd3 193d 420f 623e 9a10 e33c
00000100: 0010 e2bb 52c0 58bd cd58 0fbb 3af1 0d3e
00000110: c6b5 6f3d bfae 24be 997a fd3c b403 00bd
00000120: a153 083c ba0c 4a3c dccf f2bd 4d5c d1bd
00000130: 6cc6 52bb 3cd8 033e ea7d a3bd 7378 9ebd
00000140: 7c6c ecbc d5a1 08bd ab07 18bd 9452 8a3d
00000150: e286 d93d 1cba 18be 3f86 9f3c 02f5 733d
00000160: a621 2e3c 8e52 e93d c991 02be ed95 263e
00000170: 1442 88bc fe56 8b3b 05e0 bdbd a45e 173e
00000180: 1035 88bd 2121 2ebe 8aba 023e f426 4d3e
00000190: c2c1 32be b5d9 24bc 2f7a 1f3b 75ca 9c3d
000001a0: 1c90 0ebd 9ad5 55bd 9596 243e f4c9 e23c
000001b0: 9c57 153e b45e d0bb 2e7b 97bd 6d46 953d
000001c0: b829 bf3c aa6b 17be d870 1f3e 99e7 953d
000001d0: 1fa4 c23c bd2a b23d ce65 b33c bed4 dd3d
000001e0: 0812 4b3c bf58 b73d 435c f8bc c5f2 3dbe
000001f0: 5a5a f3ba 92d0 0e3e ec1f 04bd 02a7 ee3c
00000200: 6258 3a3e e854 0dbd c268 9f3d 6232 783e
00000210: ca61 da3d effa 9abe 8331 22be 4ef3 7c3d
00000220: c4af 8a3d 2b45 5e3d dedd 093d 79f2 ddbc
00000230: 776a 263e 133c e1bd 1d33 353e 6f43 cabd
00000240: 62c7 263e d2a9 20be b2f9 d3bd 669b 313e
00000250: 0660 d03d e760 c7bd f7af 89be b914 083d
00000260: 0b84 9fbd cc16 b23d 8ac7 713d 7398 803d
00000270: 43fd 213e f162 263d f299 bb3d d1cc 7b3e
00000280: 2cfb 883d 68a1 66be 85d6 01ba ee80 963e
00000290: 382f 7bbe 6ea0 57be 0ac3 a03d 037b 94bd
000002a0: ec23 b0bb 882d d13d cf53 2a3e b0b3 82bd
000002b0: 0a2b 9c3e 6726 4bbe 678a e5bd df96 713e
000002c0: 1b0b bebd 1ba5 673e 0e97 053d d347 013e
000002d0: 4d36 8b3d c287 d63c d568 d4bd 0f9e 20bd
000002e0: b0da ccbc cc75 ca3d 3970 d23c 1997 a6bc
000002f0: c8ea fcbc ee83 793e 7f60 e63d 52a2 10be
00000300: b6d2 533e 9d32 3d3e a74a 093d 2cb7 00bd
00000310: 1689 9fbd 5c30 16bb c7a7 14bd 4b8b e9bd
00000320: 3d2c 283e e928 093e 1811 253e e41b c8bb
00000330: 357e 283d 2c33 32be 6da2 113d 5ec3 e8bd
00000340: f88e 223e 1c0f 8abd df73 d13d 0f8e 1b3e
00000350: e8ea 0d3e b45b f5bb a1e3 3c3d 64fc 3f3d
00000360: 6842 2cbe d81c 4e3b 6f53 613e 6dbf ed3d
00000370: 54be fb3d 2abd 18bd f97c c3bc d286 6a3d
00000380: 88f6 083e 5765 3fbe 3053 acbd 2fa0 123e
00000390: f7b9 233d a69e d5bc ea02 283d 412d e63d
000003a0: f654 21be b329 3a3c 64d0 873d 0815 023d
000003b0: fcfe bb3c 4a99 4cbd ce27 883d ab20 593e
000003c0: 7db7 32bd 9610 eb3d f934 6ebd a30b 52bb
000003d0: e816 43bd d2db b9bd b110 4b3d edb9 363e
000003e0: c2c2 0bbd 28c9 863d 947d e13d 6f60 343e
000003f0: 7458 88bd d626 153a 3e88 f6bb bf91 dbbd

query_tower.bias_ih_l0 f4 [192]
-0.10553083 0.04841689 -0.079573266 -0.011785894 -0.16939306 0.062096287 -0.04876774 -0.0036838143
-0.12849358 -0.076587655 -0.0601551 -0.13036883 0.03364668 -0.06674611 -0.100390114 -0.17261092
0.024308346 -0.2060941 -0.034641325 -0.14900713 0.1403473 -0.03822889 -0.15405183 -0.10873012
-0.07027339 0.11205117 -0.15414555 -0.093372464 0.052460108 0.05101721 -0.05849614 0.15429854
0.07609445 0.03780736 -0.02630427 -0.17132756 -0.042347115 -0.0455215 -0.02111556 -0.10965211
-0.12312831 -0.033395655 -0.016465979 0.068592764 -0.034968562 0.07197732 -0.06464515 -0.06874814
0.12957902 -0.039037943 -0.10922453 0.048936352 0.088484436 -0.11128323 0.06460684 0.0054481067
0.12534817 -0.1732687 -0.13565509 -0.17283233 -0.010093982 0.10433684 -0.2755614 -0.07645212
-0.19321631 -0.15649116 0.14364737 0.18936153 0.11393359 0.06264316 -0.13274586 0.09406707
-0.0048831296 0.08183969 -0.02362979 0.0011035145 -0.01610955 0.071259424 -0.08129071 -0.0011212529
0.08809884 -0.00894141 -0.25569376 0.052866306 0.09525185 0.091889106 0.1584494 -0.14237769
0.007323183 -0.087239005 0.029766548 0.16009508 0.015068173 -0.12342031 -0.10132221 -0.025130041
-0.0070816926 0.16046487 -0.056523446 0.09143662 -0.062482186 0.016930124 -0.0644256 -0.10815794
0.011295487 -0.012592107 0.23421809 0.029735593 0.17151338 -0.07287581 -0.08064701 0.17820452
0.0037855895 0.08658841 0.038478356 -0.08925774 -0.07276976 -0.17551254 0.037981052 0.009317526
0.10041952 -0.048909813 0.064925954 -0.029929962 0.02182082 0.0761751 0.12032253 -0.1250489
-0.13752477 -0.09132495 -0.01185098 -0.1892955 -0.0158405 -0.043725606 -0.08308225 0.031173177
-0.022931296 0.073620796 -0.14131758 0.13820527 -0.09649428 0.17942408 -0.03362943 0.10725412
-0.07451934 0.18561828 -0.0053225006 -0.08325071 -0.1678751 -0.022501249 0.0763698 -0.0240995
0.07452941 -0.010931634 -0.103257954 -0.04028395 -0.19140212 0.1461013 -0.06184562 -0.054106258
-0.15465364 0.16906647 0.098446965 -0.09606491 0.10407194 0.03722686 -0.076525845 -0.07185321
0.12470438 -0.08746314 0.17102131 0.016242953 -0.07657741 0.16141996 0.029770717 -0.10983358
-0.06459017 -0.11872559 0.08161046 -0.118850574 -0.07294549 0.022399899 0.18575795 -0.17259866
-0.07546943 0.013895954 -0.11372353 0.102322176 0.10676092 -0.15980893 0.057488073 0.0051039443
00000000: 8c20 d8bd ca50 463d 4ff7 a2bd 9f19 41bc
00000010: 6075 2dbe ad58 7e3d afc0 47bd 266c 71bb
00000020: d293 03be fdd9 9cbd 3265 76bd 687f 05be
00000030: 1ad1 093d 2fb2 88bd 5599 cdbd ebc0 30be
00000040: 4c22 c73c 550a 53be 10e4 0dbd 5395 18be
00000050: 34b7 0f3e e695 1cbd c3bf 1dbe e6ad debd
00000060: 7feb 8fbd 157b e53d 55d8 1dbe 103a bfbd
00000070: 69e0 563d 6cf7 503d a699 6fbd 7000 1e3e
00000080: 68d7 9b3d e4db 1a3d 0d7c d7bc 7e70 2fbe
00000090: 2b74 2dbd c174 3abd 8afa acbc 4991 e0bd
000000a0: b22a fcbd e2c9 08bd a9e3 86bc 5d7a 8c3d
000000b0: 323b 0fbd d868 933d ad64 84bd d3cb 8cbd
000000c0: 5db0 043e 40e6 1fbd 1cb1 dfbd 7c71 483d
000000d0: 5437 b53d 76e8 e3bd 9750 843d 0886 b23b
000000e0: 455b 003e 5a6d 31be 2be9 0abe f5fa 30be
000000f0: 3b61 25bc 8eae d53d 6216 8dbe ee92 9cbd
00000100: 7fda 45be 383f 20be 4c18 133e fde7 413e
00000110: 0456 e93d 0f4b 803d 88ee 07be 3ca6 c03d
00000120: a902 a0bb 919b a73d 4393 c1bc cda3 903a
00000130: 2df8 83bc 76f0 913d be7b a6bd 01f7 92ba
00000140: 2a6d b43d fe7e 12bc 4bea 82be 578a 583d
00000150: 6713 c33d 5b30 bc3d 8f40 223e 75cb 11be
00000160: 50f7 ef3b 5daa b2bd fad8 f33c f7ef 233e
00000170: 80e0 763c cac3 fcbd 0582 cfbd 84dd cdbc
00000180: 8b0d e8bb e750 243e 2185 67bd 1f43 bb3d
00000190: 52ed 7fbd 0bb1 8a3c 92f1 83bd e981 ddbd
000001a0: b510 393c 204f 4ebc ded6 6f3e 0f98 f33c
000001b0: 34a1 2f3e ea3f 95bd 422a a5bd 3f7b 363e
000001c0: a717 783b 4455 b13d 7b9b 1d3d c3cc b6bd
000001d0: 5008 95bd 8fb9 33be 0592 1b3d 89a8 183c
000001e0: c0a8 cd3d a855 48bd e6f7 843d ae2f f5bc
000001f0: 94c1 b23c b101 9c3d a96b f63d d20c 00be
00000200: 4bd3 0cbe 9308 bbbd 9d2a 42bc aed6 41be
00000210: f0c3 81bc 9f19 33bd 0727 aabd e45e ff3c
00000220: 6ada bbbc 80c6 963d 8eb5 10be af85 0d3e
00000230: cb9e c5bd f2ba 373e 03bf 09bd 0ca8 db3d
00000240: 999d 98bd b812 3e3e 5f68 aebb 597f aabd
00000250: 73e7 2bbe 8a54 b8bc c567 9c3d 516c c5bc
00000260: e0a2 983d 991a 33bc e878 d3bd c800 25bd
00000270: ebfe 43be 949b 153e d551 7dbd 869e 5dbd
00000280: 865d 1ebe c31f 2d3e 909e c93d aebd c4bd
00000290: ab23 d53d 317b 183d 95b9 9cbd c727 93bd
000002a0: 0365 ff3d e01f b3bd 3620 2f3e f10f 853c
000002b0: 9ed4 9cbd 464b 253e b8e1 f33c 6ef0 e0bd
000002c0: da47 84bd 6726 f3bd 6323 a73d ee67 f3bd
000002d0: 7264 95bd fe7f b73c 5537 3e3e b4bd 30be
000002e0: b78f 9abd dbab 633c e2e7 e8bd 4a8e d13d
000002f0: 78a5 da3d f4a4 23be 9d78 6b3d fd3e a73b

query_tower.bias_hh_l0 f4 [192]
-0.0440247 -0.11050559 -0.03832743 -0.0111980755 -0.15212195 -0.05909814 -0.0037377907 -0.14912798
-0.14899148 0.015930131 0.04353368 -0.07975206 0.039690915 -0.026211966 -0.004857283 0.031172723
0.009951263 -0.174374 0.0063746646 -0.05069269 -0.010761431 -0.040897798 -0.110656776 -0.1982736
-0.058209147 0.13527243 -0.122967176 -0.057583697 -0.07714692 0.09936707 0.033042565 0.09886975
-0.0645055 -0.060398776 -0.0764401 -0.08961641 -0.04122405 0.060764316 -0.16377935 -0.07870094
7.845112e-06 -0.05660913 -0.016721006 0.04944317 0.10908895 0.025011837 -0.14038332 -0.08802781
0.11220889 -0.014040293 -0.08743722 -0.080863796 0.047169253 0.023130983 -0.022789625 -0.047696833
-0.011920326 -0.16656613 -0.16237934 0.0119490875 0.020351006 0.029035794 -0.067775644 -0.023795964
-0.056732204 -0.033006832 0.08767765 0.08383114 -0.048087846 0.04902944 -0.08829115 -0.008767194
0.08746421 0.07898668 -0.014507047 0.05774312 -0.06846598 0.031178249 -0.092519514 -0.12878084
0.0957808 0.04915592 -0.06481877 -0.0015458748 0.17416239 -0.009952817 0.083208 -0.07980045
-0.10453302 0.15822656 -0.1059119 -0.036597792 0.007751146 0.02487027 -0.15324216 -0.056634538
-0.1125052 -0.02325553 -0.0388464 -0.059803784 0.003260168 0.12648016 0.11382357 -0.11314955
-0.081962064 -0.009302866 0.09645245 0.070784725 0.18994144 0.037583437 -0.015742423 0.106968
-0.1988795 0.05933797 -0.12559563 -0.09178259 -0.130482 -0.13771373 -0.07623285 -0.051192157
0.12991978 0.07185058 0.031696517 -0.081364505 -0.071057975 0.13059771 -0.08913667 0.051231265
-0.09758957 -0.07073698 -0.054557122 -0.11472995 -0.08704729 0.0022849303 -0.19480988 0.06451712
-0.17809117 0.025019772 -0.08001171 -0.025617123 -0.0076031475 -0.03830203 -0.17115973 0.13083225
-0.034061734 0.022206508 0.1419324 -0.044129133 -0.06445129 -0.06754144 -0.053492375 -0.092066385
0.1647924 -0.21145268 -0.047298506 -0.10086892 -0.09359401 0.027297517 -0.17957443 -0.10148879
-0.14976366 0.015496541 -0.018631209 -0.06308262 0.16739424 0.1141867 -0.03533014 -0.03165283
0.15382175 0.04743439 -0.003139491 -0.12371996 -0.13492943 0.05507543 0.037353873 -0.20633806
0.14165823 -0.11368675 0.01134065 -0.15346421 -0.09400996 0.19324434 0.09714225 -0.055113826
-0.014934467 0.07041855 0.07521027 0.009800625 -0.077699296 -0.049364407 0.053676125 0.14023292
00000000: 3e53 34bd c150 e2bd 39fd 1cbd 2278 37bc
00000010: dbc5 1bbe e410 72bd b9f5 74bb 01b5 18be
00000020: 3991 18be e87f 823c 5f50 323d 0c55 a3bd
00000030: f192 223d 7aba d6bc d829 9fbb f05d ff3c
00000040: 9f0a 233c 198f 32be 90e2 d03b 23a3 4fbd
00000050: b750 30bc 7384 27bd 05a0 e2bd 3c08 4bbe
00000060: b76c 6ebd db84 0a3e 37d6 fbbd e2dc 6bbd
00000070: 34ff 9dbd f680 cb3d a457 073d 397c ca3d
00000080: 761b 84bd b564 77bd a18c 9cbd cf88 b7bd
00000090: 8dda 28bd 01e4 783d c6b5 27be f52d a1bd
000000a0: 809e 0337 fade 67bd 7efa 88bc ec84 4a3d
000000b0: 076a df3d a0e5 cc3c a5c0 0fbe ed47 b4bd
000000c0: c6cd e53d 4209 66bc 4912 b3bd eb9b a5bd
000000d0: 8c34 413d 307d bd3c 4fb1 babc c15d 43bd
000000e0: 794d 43bc 5090 2abe c546 26be 1bc6 433c
000000f0: 27b7 a63c 79dc ed3c f5cd 8abd c1ef c2bc
00000100: 0760 68bd 2c32 07bd 5790 b33d a9af ab3d
00000110: c3f7 44bd 18d3 483d fed1 b4bd 47a4 0fbc
00000120: 7020 b33d c5c3 a13d f7ae 6dbc 0d84 6c3d
00000130: e437 8cbd 8769 ff3c df7a bdbd 20df 03be
00000140: b928 c43d b857 493d b4bf 84bd f39e caba
00000150: a057 323e 2411 23bc f568 aa3d 6b6e a3bd
00000160: 6815 d6bd 2506 223e 57e8 d8bd 91e7 15bd
00000170: 53fd fd3b bdbc cb3c 83eb 1cbe 9ef9 67bd
00000180: 2069 e6bd 6282 bebc 671d 1fbd d0f4 74bd
00000190: 8ba8 553b 0484 013e 551c e93d f4ba e7bd
000001a0: badb a7bd 0c6b 18bc dd88 c53d 95f7 903d
000001b0: 0280 423e 17f1 193d 41f6 80bc 0a12 db3d
000001c0: 11a7 4bbe 5f0c 733d 249c 00be 83f8 bbbd
000001d0: 139d 05be d404 0dbe f81f 9cbd deae 51bd
000001e0: b109 053e 6626 933d 35d4 013d 6fa2 a6bd
000001f0: d886 91bd 68bb 053e 498d b6bd e0d7 513d
00000200: 0add c7bd 8dde 90bd 4a77 5fbd 89f7 eabd
00000210: d945 b2bd c5be 153b 3e7c 47be 8d21 843d
00000220: 885d 36be 44f6 cc3c 2edd a3bd 00db d1bc
00000230: d323 f9bb 97e2 1cbd 7f44 2fbe e4f8 053e
00000240: 5184 0bbd 6cea b53c ba56 113e c0c0 34bd
00000250: 0aff 83bd 2b53 8abd d21a 5bbd 4d8d bcbd
00000260: 57bf 283e 0d87 58be 14bc 41bd 5d94 cebd
00000270: 37ae bfbd 0b9f df3c 5ce2 37be 5bd9 cfbd
00000280: a55b 19be 34e5 7d3c 7aa0 98bc 7631 81bd
00000290: 6569 2b3e b7da e93d 56b6 10bd 66a6 01bd
000002a0: 7383 1d3e 904a 423d ebbf 4dbb e460 fdbd
000002b0: f12a 0abe c696 613d 6000 193d 494a 53be
000002c0: db0e 113e 99d4 e8bd 22ce 393c b925 1dbe
000002d0: 4b88 c0bd d8e1 453e 84f2 c63d 09bf 61bd
000002e0: b2af 74bc 9a37 903d d807 9a3d cd92 203c
000002f0: cf20 9fbd 5532 4abd 7fdb 5b3d 3899 0f3e

query_tower.weight_ih_l1 f4 [192, 64]
-0.15471165 -0.12553456 0.10469465 -0.1459176 -0.018817483 0.17833517 0.100548714 -0.053986065
-0.053346273 -0.020314023 0.10552088 -0.027983489 0.039147444 0.11345426 -0.005182736 0.07619084
0.004155496 -0.010732244 0.17904027 -0.1326039 -0.18566185 -0.12835543 0.14614117 0.03144676
-0.106404245 -0.18862891 0.08228722 -0.24308594 0.086384095 0.07945642 -0.005493359 -0.078174114
-0.00674062 0.06643706 0.15260461 -0.13231711 -0.10700558 0.12389081 0.055726215 0.048113022
0.0061444496 0.030193092 -0.24740936 0.06482931 -0.17650758 -0.0036730568 0.06043455 -0.079956375
0.21051952 -0.16910884 -0.059323847 -0.04350222 0.13395973 -0.06359028 -0.067800805 -0.08784853
0.03870063 0.1280853 0.008553887 0.0550954 0.12827174 -0.010159718 -0.015531096 0.053654153
0.09737543 0.06487126 0.11172729 -0.0072759483 -0.019529868 0.09864147 0.08076847 -0.011432039
-0.0057405345 -0.09813857 -0.07735201 0.11572906 0.0394547 -0.010213993 0.089242905 -0.14166425
0.038561486 -0.16443098 -0.049070787 0.0859436 0.1163961 -0.00401784 -0.052541036 -0.0943049
-0.0952179 0.0801702 -0.01615199 0.12472981 0.033881888 -0.13552845 0.09480308 0.12607281
0.12548493 -0.027154712 0.15631375 0.042483922 -0.20878835 0.0067572254 -0.0857137 0.00018792896
-0.09297602 -0.09291529 -0.20832254 -0.004454795 0.11468902 -0.13153915 0.080262415 0.08547507
0.078766726 0.12097472 0.09894641 -0.013928087 -0.06292455 0.111837156 -0.12643255 0.022324387
-0.05358979 0.00904355 -0.1107218 -0.04174761 -0.028599562 0.029054262 0.0516844 0.074543685
-0.05820799 0.072914414 -0.18472958 -0.1307159 -0.055166896 0.21465486 0.15821666 -0.0792648
0.026189975 -0.0074203564 0.038348526 -0.052762717 -0.07484713 -0.061841086 -0.03667073 -0.028250942
-0.07598455 0.12840745 -0.073658384 0.1019095 -0.0287099 0.061860126 0.24529828 -0.09042261
-0.01619752 -0.07892265 -0.097500704 -0.19682391 0.043250836 -0.06948711 -0.0065320833 0.0051851915
-0.05250387 0.08328356 0.11339714 -0.18864417 0.1372614 0.19100341 0.10544227 0.1730664
-0.06662144 0.12970346 0.04945073 0.08379856 -0.09606434 -0.019811235 0.026029687 0.027254827
0.001000642 -0.22383216 -0.06881586 0.0029614805 -0.013098952 -0.16087689 -0.058507357 -0.05089813
-0.031645253 -0.096120305 0.093478054 0.0018755062 0.08620338 -0.0122272065 -0.030821102 -0.075425245
0.16622145 -0.13607983 0.14285015 0.11096586 -0.078104846 0.25305307 0.031027507 0.081165865
-0.10014256 0.028819164 0.07377746 -0.101587705 0.020989427 -0.008119905 0.16065349 -0.030425904
-0.028778726 -0.16292238 0.06932893 -0.11134202 0.0049493005 -0.15878065 -0.054932553 -0.1511927
0.0051447432 -0.1417735 0.069844246 0.089641176 0.22582375 -0.009348255 0.12573697 0.12182345
0.1796507 0.05200034 -0.05742331 0.079427816 0.036306944 -0.014617032 0.029804455 0.07142741
0.015227184 -0.08697454 -0.06581131 -0.08441195 0.075904466 -0.15842883 0.1619872 0.1084142
0.01894912 0.051094256 0.0743952 -0.0046303472 0.15570848 -0.088993184 -0.02916523 -0.022978185
-0.06037955 0.14821404 -0.04272267 -0.07638137 -0.058452312 0.048121803 0.008644776 0.07026139
00000000: bb6c 1ebe 228c 00be 266a d63d 6c6b 15be
00000010: 1f27 9abc 7f9d 363e 7cec cd3d 7e20 5dbd
00000020: 9f81 5abd 9869 a6bc 551b d83d a13d e5bc
00000030: 1259 203d b55a e83d f1d3 a9bb f109 9c3d
00000040: d42a 883b 4bd6 2fbc 5556 373e 51c9 07be
00000050: 241e 3ebe 9b6f 03be 08a6 153e 51ce 003d
00000060: 78ea d9bd f027 41be 3486 a83d 85eb 78be
00000070: 25ea b03d 0cba a23d a301 b4bb c019 a0bd
00000080: 6be0 dcbb 2710 883d 6244 1c3e 237e 07be
00000090: be25 dbbd 77ba fd3d 2c41 643d 2912 453d
000000a0: 6157 c93b 8157 f73c e158 7dbe 3bc5 843d
000000b0: 67be 34be abb7 70bb 388a 773d 2bc0 a3bd
000000c0: 6e92 573e de2a 2dbe 90fd 72bd 622f 32bd
000000d0: bd2c 093e 9f3b 82bd 26db 8abd eee9 b3bd
000000e0: 8d84 1e3d cb28 033e 9a25 0c3c b7ab 613d
000000f0: ab59 033e f274 26bc 2376 7ebc 75c4 5b3d
00000100: c56c c73d 39db 843d 47d1 e43d 146b eebb
00000110: 1afd 9fbc 8a04 ca3d f169 a53d 724d 3bbc
00000120: 181b bcbb e0fc c8bd bb6a 9ebd 5b03 ed3d
00000130: 409b 213d 9758 27bc fcc4 b63d 6f10 11be
00000140: a6f2 1d3d 9860 28be 73fe 48bd 3303 b03d
00000150: 1461 ee3d 16a8 83bb 4535 57bd ed22 c1bd
00000160: 9a01 c3bd 4630 a43d 2e51 84bc 5872 ff3d
00000170: bcc7 0a3d f8c7 0abe 1e28 c23d 3b19 013e
00000180: 1f7f 003e 8f73 debc b610 203e 9f03 2e3d
00000190: 9dcc 55be b76b dd3b aa8a afbd cc0e 4539
000001a0: 366a bebd 5f4a bebd 8152 55be 87f9 91bb
000001b0: 14e2 ea3d 33b2 06be 9f60 a43d 8e0d af3d
000001c0: 7350 a13d 98c1 f73d 6aa4 ca3d a232 64bc
000001d0: 96de 80bd e10a e53d 8977 01be a2e1 b63c
000001e0: f880 5bbd 662b 143c 1cc2 e2bd 8bff 2abd
000001f0: a149 eabc 3403 ee3c 05b3 533d 5caa 983d
00000200: 806b 6ebd 2754 953d c029 3dbe 64da 05be
00000210: aff6 61bd 7cce 5b3e 8c03 223e 9555 a2bd
00000220: 5c8c d63c 7626 f3bb 5813 1d3d b81d 58bd
00000230: 7449 99bd 144d 7dbd 0c34 16bd 856e e7bc
00000240: ca9d 9bbd 3e7d 033e 35da 96bd eeb5 d03d
00000250: 0631 ebbc 0b61 7d3d 792f 7b3e 7d2f b9bd
00000260: a9b0 84bc 33a2 a1bd 73ae c7bd 358c 49be
00000270: ca27 313d 424f 8ebd 160b d6bb 8ae8 a93b
00000280: 4c0e 57bd 9290 aa3d c23c e83d f02b 41be
00000290: 418e 0c3e 6696 433e 1ef2 d73d 5238 313e
000002a0: d270 88bd fcd0 043e d98c 4a3d 949e ab3d
000002b0: 61bd c4bd 2c4b a2bc 363c d53c 8445 df3c
000002c0: f927 833a 4234 65be 54ef 8cbd 6615 423b
000002d0: fd9c 56bc e9bc 24be 69a5 6fbd 8f7a 50bd
000002e0: 749e 01bd b9da c4bd 6c71 bf3d 8cd3 f53a
000002f0: 668b b03d 9f54 48bc 897c fcbc 8d78 9abd
00000300: f535 2a3e 8358 0bbe 4f47 123e 1242 e33d
00000310: 6ff5 9fbd 2c90 813e 662d fe3c 4a3a a63d
00000320: 8b17 cdbd 2b16 ec3c a318 973d 370d d0bd
00000330: 05f2 ab3c 5a09 05bc 5982 243e bf3f f9bc
00000340: 5dc1 ebbc 20d5 26be 53fc 8d3d 4907 e4bd
00000350: be2d a23b 6597 22be f500 61bd 42d2 1abe
00000360: 3c95 a83b 132d 11be 800a 8f3d cb95 b73d
00000370: 573e 673e 6c29 19bc 31c1 003e 937e f93d
00000380: 5af6 373e 4ffe 543d b434 6bbd 0dab a23d
00000390: 97b6 143d 477c 6fbc 7928 f43c 8948 923d
000003a0: 707b 793c b51f b2bd 15c8 86bd 2ce0 acbd
000003b0: cd73 9b3d 2b3b 22be f9df 253e 4408 de3d
000003c0: 2f3b 9b3c 3648 513d 835c 983d 2bba 97bb
000003d0: 0b72 1f3e 0f42 b6bd eceb eebc bf3c bcbc
000003e0: 8c50 77bd 6cc5 173e f7fd 2ebd d66d 9cbd
000003f0: b16b 6fbd 5e1b 453d d2a2 0d3c 34e5 8f3d

query_tower.weight_hh_l1 f4 [192, 64]
-0.050271273 0.18388048 0.12640606 0.05761296 0.1355804 -0.11383405 -0.12128722 -0.075546466
0.03634449 -0.10414151 0.034807205 0.0056502945 0.018993132 0.042948287 0.16521606 -0.041158002
-0.023060396 -0.13940676 0.054122824 -0.08469467 0.103199236 0.028648274 0.029275903 -0.13867086
-0.005311954 -0.15557605 -0.0514172 -0.17886826 -0.03608208 0.05980354 -0.062155493 -0.029911576
0.10370843 0.14374082 0.049304083 -0.19248866 -0.1175135 0.037271667 -0.072406694 0.119628236
0.20663822 -0.22569017 -0.07179264 -0.025095228 -0.07527552 0.008021401 -0.090434305 -0.016072141
-0.119685516 0.1313062 -0.11271841 0.04330372 0.09932827 -0.16916175 -0.019710617 0.01952441
0.05329722 0.08821085 0.14317855 0.0068238317 -0.08111637 -0.061363526 -0.07768773 0.24670494
-0.10519435 0.26898804 0.12238949 -0.08800991 -0.017314067 -0.021781322 -0.15650564 0.08966513
-0.10802246 -0.06830296 0.081530124 0.053978745 -0.098039165 -0.04256507 0.081795394 0.06778583
0.09126253 -0.008314267 -0.05210759 0.0528425 0.061681658 0.010759018 0.18231587 -0.28475574
0.01995403 -0.0950608 -0.040035207 -0.076968856 0.09943554 -0.07112634 -0.02310506 0.0665926
-0.0056563094 0.073602445 0.0987747 0.0653398 -0.11815616 0.073580764 0.060661435 0.13450854
-0.1351137 0.07294672 0.09483014 -0.048750024 0.013926204 -0.043899063 -0.047779184 0.13314039
0.1335282 0.10376133 0.14926304 -0.015662448 0.0733481 -0.11642507 0.13459495 0.016029363
0.11543483 0.11321191 -0.047390535 -0.018380554 0.068998955 -0.14096558 0.0028350325 -0.08393724
-0.15293597 0.17023087 -0.083846964 0.102810085 0.17093074 -0.21463895 -0.19980522 -0.15641813
-0.117674395 -0.13323681 0.027972708 -0.085377306 -0.14315209 -0.079635605 0.234476 -0.054912534
0.21031113 -0.16489716 -0.045519054 0.14150557 0.014819203 -0.052395333 0.19682693 -0.21022698
-0.08823214 -0.24661186 0.013760761 -0.10865403 -0.13551636 0.15977189 0.11915503 0.033350434
-0.012985924 0.066126324 -0.07739248 -0.2652745 0.030089159 0.07051224 -0.23777409 0.15793729
0.029598922 -0.01299442 -0.0049504526 -0.027029878 -0.12146135 0.023143822 -0.06253019 0.051828336
-0.017941654 0.086937934 -0.029067006 -0.07334404 0.025148595 0.03296643 0.051464476 0.018231297
-0.13763374 -0.021684913 0.010417458 -0.08403631 0.07947647 0.018954048 -0.063829124 -0.013887196
-0.12326034 0.13135466 -0.09591729 -0.07121885 0.109452754 0.058629315 -0.095417924 -0.015136001
-0.01317508 -0.109031044 -0.029388176 0.081477486 0.023052229 -0.076741956 0.055469044 0.06501278
0.022100162 -0.050797436 0.022534285 -0.08277762 -0.057434082 -0.11221228 0.17707846 0.034549557
-0.08646783 0.059369225 -0.09253741 -0.09178223 -0.050930962 0.08265607 0.07799827 0.09687813
-0.09520398 0.0020377038 0.107498966 0.07730633 -0.03399673 -0.05291199 -0.02312025 -0.030708019
0.0631448 0.086382486 -0.09930372 -0.0013368581 0.11279574 0.015469746 -0.07360691 0.045834787
0.08167147 0.0808787 0.12283496 -0.10885684 -0.10859433 -0.113741055 0.010796482 -0.119531296
-0.029069606 0.10891528 -0.001198912 0.0053593274 -0.08896227 -0.098135345 -0.043164413 0.032079518
00000000: 40e9 4dbd 2a4b 3c3e 9770 013e 91fb 6b3d
00000010: 97d5 0a3e d421 e9bd 6f65 f8bd 1bb8 9abd
00000020: f6dd 143d 2548 d5bd 0092 0e3d 1b26 b93b
00000030: 7c97 9b3c 8bea 2f3d 662e 293e 4b95 28bd
00000040: 28e9 bcbc a5c0 0ebe e5af 5d3d 6674 adbd
00000050: 1f5a d33d c9af ea3c 05d4 ef3c bcff 0dbe
00000060: e60f aebb 544f 1fbe d89a 52bd 3e29 37be
00000070: ceca 13bd 8ff4 743d c296 7ebd 1f09 f5bc
00000080: 1665 d43d cb30 133e 14f3 493d bf1b 45be
00000090: ebaa f0bd 2daa 183d f649 94bd a6ff f43d
000000a0: f898 533e 531b 67be 0508 93bd 8294 cdbc
000000b0: 0d2a 9abd 326c 033c 9f35 b9bd b9a9 83bc
000000c0: ae1d f5bd 2275 063e e9d8 e6bd 3e5f 313d
000000d0: 9f6c cb3d bd38 2dbe 2978 a1bc a8f1 9f3c
000000e0: 304e 5a3d e4a7 b43d 669d 123e 739a df3b
000000f0: 5720 a6bd 5258 7bbd bf1a 9fbd 38a0 7c3e
00000100: 2370 d7bd cdb8 893e 57a7 fa3d 8a3e b4bd
00000110: 3bd6 8dbc be6e b2bc 0443 20be 5aa2 b73d
00000120: e13a ddbd 6ce2 8bbd 44f9 a63d d118 5d3d
00000130: c2c8 c8bd b658 2ebd 5884 a73d 4cd3 8a3d
00000140: d9e7 ba3d 9038 08bc c56e 55bd 6171 583d
00000150: e8a5 7c3d 9846 303c 03b1 3a3e 81cb 91be
00000160: a276 a33c 3daf c2bd f5fb 23bd d9a1 9dbd
00000170: dca4 cb3d b0aa 91bd d346 bdbc b361 883d
00000180: 9058 b9bb e1bc 963d 644a ca3d e0d0 853d
00000190: dbfb f1bd 83b1 963d 2078 783d 9bbc 093e
000001a0: 3f5b 0abe 1765 953d 4e36 c23d 1bae 47bd
000001b0: bc2a 643c 81cf 33bd 1bb4 43bd f455 083e
000001c0: 9ebb 083e d280 d43d 69d8 183e 894e 80bc
000001d0: 8737 963d 4470 eebd 42d3 093e 0350 833c
000001e0: 1969 ec3d a5db e73d 941c 42bd d192 96bc
000001f0: 534f 8d3d 4859 10be f4cb 393b 4ae7 abbd
00000200: 3f9b 1cbe 0051 2e3e f5b7 abbd 188e d23d
00000210: 7808 2f3e 50ca 5bbe bd99 4cbe 132c 20be
00000220: 46ff f0bd 3b6f 08be 0527 e53c 4cda aebd
00000230: 7696 12be fe17 a3bd 7a1a 703e f7eb 60bd
00000240: cd5b 573e cdda 28be 3072 3abd d6e6 103e
00000250: 3ecc 723c 7d9c 56bd 008d 493e be45 57be
00000260: 0db3 b4bd d287 7cbe d174 613c 0186 debd
00000270: cdc4 0abe 3e9b 233e 8d07 f43d 779a 083d
00000280: eac2 54bc 3d6d 873d f37f 9ebd 0fd2 87be
00000290: 8a7d f63c b968 903d 0d7b 73be 50ba 213e
000002a0: 7079 f23c 8ce6 54bc 6837 a2bb c36d ddbc
000002b0: bac0 f8bd 1d98 bd3c d40f 80bd f349 543d
000002c0: 60fa 92bc 840c b23d ee1d eebc 6635 96bd
000002d0: 6d04 ce3c cf07 073d 6acc 523d cd59 953c
000002e0: dcef 0cbe 8fa4 b1bc fcad 2a3c 3b1b acbd
000002f0: 8fc4 a23d 8545 9b3c d8b8 82bd 1f87 63bc
00000300: eb6f fcbd d681 063e 4970 c4bd 30db 91bd
00000310: c428 e03d 4b25 703d 796a c3bd fdfc 77bc
00000320: 4adc 57bc ab4b dfbd 79bf f0bc abdd a63d
00000330: 07d8 bc3c e32a 9dbd 8233 633d 6c25 853d
00000340: 660b b53c f910 50bd d299 b83c 5087 a9bd
00000350: 0040 6bbd 8dcf e5bd 0e54 353e d683 0d3d
00000360: 0c16 b1bd 252d 733d 4184 bdbd 52f8 bbbd
00000370: fc9c 50bd 9647 a93d 8fbd 9f3d 0b68 c63d
00000380: 4efa c2bd ff8a 053b 6b28 dc3d c852 9e3d
00000390: 2840 0bbd 3eba 58bd ae66 bdbc 628f fbbc
000003a0: 1052 813d 4de9 b03d c05f cbbd 8439 afba
000003b0: 7401 e73d d174 7d3c 38bf 96bd 42bd 3b3d
000003c0: 5f43 a73d bba3 a53d e590 fb3d 56f0 debd
000003d0: b466 debd 12f1 e8bd bae3 303c d3cc f4bd
000003e0: 6223 eebc f90e df3d d024 9dba 4c9d af3b
000003f0: da31 b6bd 2ffb c8bd 2bcd 30bd d065 033d

query_tower.bias_ih_l1 f4 [192]
-0.074275665 -0.18151513 0.16637616 -0.187216 0.012394463 0.14541198 -0.104043365 0.029730853
0.061360005 0.11031119 0.09840894 -0.03336187 0.032354638 0.020875873 -0.19578442 0.13907167
-0.0025549522 0.111827046 -0.17279515 0.014874818 0.09692391 0.048936974 -0.11133071 0.025824454
-0.09996549 0.0015537281 -0.12163098 -0.16864622 0.12377255 0.06318085 0.007055455 0.038526688
-0.16915557 -0.033564877 0.017214784 0.007503252 0.10289153 0.026364813 -0.04988726 0.022477563
0.07175199 -0.045866385 -0.021607783 0.13538493 0.10978352 -0.08095055 0.008055407 0.03445083
0.05855852 0.08333314 -0.17850834 -0.04894816 -0.0051900866 -0.18046163 -0.009120458 0.08226177
-0.023377435 -0.11588324 -0.039443515 -0.010323144 -0.1433172 0.018952386 0.074896716 -0.017345142
-0.018026212 0.06628243 0.008991125 -0.0036668 0.20418766 0.10284566 -0.03095883 0.0012361787
-0.0017399533 -0.137536 0.10872049 -0.06683652 -0.0029257068 -0.064058885 0.11561902 0.12532093
-0.15790229 -0.13432628 0.0035646202 -0.03742529 -0.071735926 0.120688155 -0.06270867 -0.011269554
-0.0032575638 0.06630524 -0.11484736 -0.033340693 0.14911951 0.067395866 0.06616394 0.0021473619
-0.0073031704 -0.040139664 -0.067654245 0.047210835 -0.17405939 0.105409406 -0.013738025 0.094473474
0.028869664 -0.08056283 -0.12017452 -0.0077197086 0.051343475 -0.0035888043 0.038354233 0.097643405
0.00011669565 -0.016126303 0.05727214 0.14236972 -0.105107285 0.05547024 0.002947168 0.1480259
-0.033030245 -0.083057076 -0.19944073 -0.06562885 0.03062228 0.14153965 -0.05109736 -0.06994588
-0.07157998 -0.030833613 -0.023196263 0.09543718 0.0104701165 0.023467433 0.010494017 0.036792204
-0.04005012 -0.048153408 -0.14387818 -0.06722115 0.03748891 -0.0054060626 0.07044678 -0.1261
-0.06238965 -0.076493576 0.05270343 0.10378615 -0.057277035 -0.13723394 -0.051851127 0.12418284
0.011602182 -0.009641809 0.08387318 -0.024557533 -0.09498806 0.084094554 0.1177706 -0.074989974
-0.08893555 -0.08000053 -0.10524934 -0.14049806 -0.01498573 -0.13390878 0.07037365 -0.019300805
0.10595206 -0.12352954 -0.08387833 0.0116630895 -0.090368666 -0.051789455 -0.1322594 0.05560866
0.04610934 0.1576602 -0.12975413 -0.04166592 -0.101797506 0.11993596 0.09748914 -0.07484815
-0.0030358227 -0.09118385 -0.054249283 0.031275976 0.12135094 -0.005459668 -0.05211232 0.016187623
00000000: d71d 98bd 1adf 39be 835e 2a3e 8db5 3fbe
00000010: 2512 4b3c e1e6 143e b014 d5bd 1e8e f33c
00000020: a154 7b3d d5ea e13d a08a c93d 75a6 08bd
00000030: 4c86 043d e103 ab3c b67b 48be ce68 0e3e
00000040: fc70 27bb 9405 e53d 36f1 30be 82b5 733c
00000050: 0b80 c63d 2372 483d 5b01 e4bd ce8d d33c
00000060: b5ba ccbd 77a6 cb3a aa19 f9bd 98b1 2cbe
00000070: 767c fd3d f664 813d 7231 e73b 29ce 1d3d
00000080: 1e37 2dbe 537b 09bd 0506 8d3c d7dd f53b
00000090: cbb8 d23d 05fb d73c 9556 4cbd de22 b83c
000000a0: b5f2 923d 64de 3bbd ce02 b1bc 59a2 0a3e
000000b0: 2fd6 e03d 67c9 a5bd d3fa 033c 501c 0d3d
000000c0: 0fdb 6f3d 91aa aa3d e4ca 36be de7d 48bd
000000d0: 9a11 aabb efca 38be f96d 15bc dc78 a83d
000000e0: 0982 bfbc 3154 edbd 868f 21bd 6722 29bc
000000f0: bec1 12be 0942 9b3c 7363 993d 6617 8ebc
00000100: b5ab 93bc 15bf 873d 834f 133c b24e 70bb
00000110: 9216 513e bfa0 d23d 5f9d fdbc 4607 a23a
00000120: 250f e4ba 3dd6 0cbe d9a8 de3d 96e1 88bd
00000130: 37bd 3fbb 4e31 83bd aac9 ec3d 2154 003e
00000140: 23b1 21be d48c 09be 679c 693b 434b 19bd
00000150: 49ea 92bd 5a2b f73d 676d 80bd efa3 38bc
00000160: da7c 55bb 0bcb 873d 1835 ebbd 4090 08bd
00000170: c9b2 183e d806 8a3d f680 873d c1ba 0c3b
00000180: 6f4f efbb 7d69 24bd 4f8e 8abd 2660 413d
00000190: a03c 32be e3e0 d73d 7415 61bc 4f7b c13d
000001a0: 1380 ec3c 20fe a4bd 0f1e f6bd 9cf5 fcbb
000001b0: 894d 523d 2532 6bbb 5419 1d3d 44f9 c73d
000001c0: 80ba f438 4f1b 84bc 3196 6a3d 5ec9 113e
000001d0: 7d42 d7bd c334 633d 4625 413b 1a94 173e
000001e0: b94a 07bd d419 aabd 313a 4cbe 6b68 86bd
000001f0: 93db fa3c c5ef 103e 774b 51bd c93f 8fbd
00000200: 8698 92bd c696 fcbc 1706 bebc 9174 c33d
00000210: da8a 2b3c c63e c03c 19ef 2b3c 6cb3 163d
00000220: 980b 24bd 823c 45bd cd54 13be 3eab 89bd
00000230: f98d 193d 5725 b1bb 6746 903d 5c20 01be
00000240: 4a8c 7fbd aaa8 9cbd 8ddf 573d d58d d43d
00000250: 539b 6abd 0e87 0cbe d961 54bd 9353 fe3d
00000260: 1417 3e3c aef8 1dbc b4c5 ab3d e12c c9bc
00000270: 1a89 c2bd c439 ac3d b631 f13d 5894 99bd
00000280: d723 b6bd 51d7 a3bd f78c d7bd b9de 0fbe
00000290: b586 75bc 621f 09be 0f20 903d b91c 9ebc
000002a0: 65fd d83d 0efd fcbd 67c8 abbd 8b16 3f3c
000002b0: 3513 b9bd 2e21 54bd 026f 07be e8c5 633d
000002c0: 26dd 3c3d ad71 213e 44de 04be e2a9 2abd
000002d0: 367b d0bd fca0 f53d 63a8 c73d fd49 99bd
000002e0: a7f4 46bb 99be babd 7f34 5ebd 3d1b 003d
000002f0: d786 f83d 04e7 b2bb ba73 55bd e89b 843c

query_tower.bias_hh_l1 f4 [192]
-0.006143087 -0.17433168 0.10009286 -0.15189895 -0.00494244 -0.0292313 0.12266296 0.0056671896
-0.076609656 -0.035516564 -0.097974315 0.10230734 0.18799007 -0.16753452 -0.18359539 0.14355795
-0.056583524 0.081201516 -0.018377807 -0.06748808 0.009947977 -0.015412988 -0.09116415 0.1164393
-0.11224375 0.048248064 0.019051958 0.0017506718 -0.062070854 0.015153389 -0.064941406 0.010630479
0.0381184 0.09894019 -0.134184 0.030172335 0.073707774 -0.100761846 -0.016247831 -0.035588253
0.05388241 -0.13977617 -0.013983896 -0.04691111 -0.050516874 0.07987704 0.036965642 0.09516419
-0.02045989 0.055029485 0.022406071 0.041995723 0.17013937 -0.03862575 -0.109850645 0.06693818
-0.057882767 -0.14558138 0.00041135628 -0.026339836 -0.1716376 -0.04157662 -0.017766332 0.075493865
-0.06636785 -0.07174458 0.08882888 0.02091007 0.017446969 -0.057256047 -0.0131656835 -0.10535992
-0.10199859 -0.1672757 0.14834318 -0.059400514 -0.03809202 -0.060081523 -0.109115385 0.13832133
-0.1590298 0.06408466 -0.06504428 -0.061702177 -0.074058585 0.09453648 0.01810537 -0.12437725
-0.035302356 -0.12337984 -0.02066408 0.0042265826 -0.030009188 0.0055574975 0.09120618 -0.023272943
-0.098143734 0.04624244 -0.036162704 -0.027561005 -0.047722243 0.15108941 -0.00075225765 0.120224886
-0.14270805 0.020878414 -0.06629434 0.027415382 0.075200364 -0.043413956 0.026787842 0.025124501
-0.011390021 -0.028019743 0.1586256 0.18838573 -0.049137037 0.02092414 0.038439468 0.09770348
-0.06452523 -0.22890459 -0.17680903 0.075667724 -0.112168156 0.21951473 -0.03483381 -0.11686236
0.07231932 -0.019181447 -0.12546863 -0.01994886 -0.09921011 -0.17499585 -0.065851554 0.1566023
-0.04267475 -0.030663472 0.069980554 -0.12119616 -0.0347078 -0.07120313 0.14263895 -0.07227391
-0.06050902 -0.076289184 0.12180207 0.09039407 0.0020948092 -0.012433361 -0.047992613 0.07637708
-0.016888894 -0.16689454 0.107836984 -0.08766815 -0.0093073165 0.115158424 -0.08956975 -0.050478663
-0.17086458 -0.04114651 -0.034058325 -0.028998904 0.14202017 -0.1395181 0.044935092 -0.073494256
-0.006563125 -0.14649202 -0.13783702 -0.077862844 -0.18014458 -0.11780231 0.081400365 0.052618198
0.0823134 0.10769924 -0.008256643 -0.058745798 -0.017058678 -0.06745069 0.044568006 -0.1351847
-0.03692211 -0.06649948 -0.056486174 -0.106190324 -0.004021319 0.04822483 -0.023559755 0.010028435
00000000: f34b c9bb 0184 32be 7cfd cc3d 668b 1bbe
00000010: 31f4 a1bb 7b76 efbc b836 fb3d d5b3 b93b
00000020: 86e5 9cbd d179 11bd c2a6 c8bd 8386 d13d
00000030: 7880 403e 2b8e 2bbe 6e00 3cbe db00 133e
00000040: 20c4 67bd fb4c a63d 0e8d 96bc 3137 8abd
00000050: d7fc 223c c286 7cbc 45b4 babd ba77 ee3d
00000060: 0de0 e5bd c39f 453d da12 9c3c cc76 e53a
00000070: 023e 7ebd ec45 783c 0000 85bd 762b 2e3c
00000080: 0a22 1c3d 28a1 ca3d 8867 09be f92b f73c
00000090: 1af4 963d 3a5c cebd 2c1a 85bc fdc4 11bd
000000a0: cdb3 5c3d 7c21 0fbe b61c 65bc dd25 40bd
000000b0: c8ea 4ebd 9396 a33d 4969 173d 71e5 c23d
000000c0: 809b a7bc 9966 613d f08c b73c b503 2c3d
000000d0: 0439 2e3e 0936 1ebd 60f9 e0bd e216 893d
000000e0: 7b16 6dbd 4913 15be 4eab d739 a4c6 d7bc
000000f0: c4c1 2fbe 3f4c 2abd b38a 91bc 879c 9a3d
00000100: deeb 87bd d3ee 92bd eaeb b53d 984b ab3c
00000110: f2ec 8e3c 5185 6abd e1b4 57bc f1c6 d7bd
00000120: a3e4 d0bd 524a 2bbe 46e7 173e f44d 73bd
00000130: 6106 1cbd 0b18 76bd e377 dfbd 1ba4 0d3e
00000140: b5d8 22be d13e 833d ef35 85bd 6cbb 7cbd
00000150: 07ac 97bd 589c c13d b751 943c 80b9 febd
00000160: 3499 10bd 92ae fcbd b747 a9bc 257f 8a3b
00000170: d4d5 f5bc ab1b b63b 4eca ba3d e6a6 bebc
00000180: 95ff c8bd b668 3d3d 581f 14bd 9ec7 e1bc
00000190: 6678 43bd 2fb7 1a3e 2833 45ba 7738 f63d
000001a0: 0f22 12be 3509 ab3c 54c5 87bd 3996 e03c
000001b0: a602 9a3d d5d2 31bd 2d72 db3c e6d1 cd3c
000001c0: 369d 3abc a989 e5bc c06e 223e 30e8 403e
000001d0: eb43 49bd 1a69 ab3c b472 1d3d c318 c83d
000001e0: ce25 84bd f765 6abe 6d0d 35be aef7 9a3d
000001f0: 6bb8 e5bd 78c8 603e e6ad 0ebd 8855 efbd
00000200: 271c 943d 6922 9dbc d97a 00be cb6b a3bc
00000210: ac2e cbbd 1d32 33be 2edd 86bd 5a5c 203e
00000220: b8cb 2ebd f631 fbbc f751 8f3d b135 f8bd
00000230: c429 0ebd f2d2 91bd f20f 123e 5804 94bd
00000240: 4ed8 77bd 813d 9cbd 5d73 f93d 8720 b93d
00000250: 1149 093b 4cb5 4bbc e793 44bd 966b 9c3d
00000260: 945a 8abc 67e6 2abe a3d9 dc3d 5c8b b3bd
00000270: b77d 18bc 2ed8 eb3d 5870 b7bd b7c2 4ebd
00000280: 20f7 2ebe 3e89 28bd be80 0bbd 1c8f edbc
00000290: bc6d 113e d5dd 0ebe dc0d 383d 2884 96bd
000002a0: 7c0f d7bb 0102 16be 2625 0dbe 8e76 9fbd
000002b0: d277 38be 5642 f1bd 3cb5 a63d 2e86 573d
000002c0: ee93 a83d 6b91 dc3d df46 07bc 6f9f 70bd
000002d0: a4be 8bbc 9623 8abd f18c 363d dc6d 0abe
000002e0: a33b 17bd e130 88bd 0c5e 67bd 507a d9bd
000002f0: 45c5 83bb 6687 453d 6300 c1bc 4e4e 243c

doc_tower.weight_ih_l0 f4 [192, 100]
-0.038611323 0.04084526 -0.0550912 -0.11077547 0.020609217 -0.07512498 0.18959841 0.069754034
-0.002682153 0.014165182 -0.14560053 -0.13042963 0.0515494 -0.043983273 0.1280421 0.011671025
-0.07446925 -0.17077644 -0.052997883 -0.20111918 0.050483942 -0.0031782293 0.059002716 0.090429656
0.037279565 -0.19158752 -0.07354248 -0.088514715 0.026359903 -0.056630764 -0.02169032 0.09010712
0.014004054 -0.13004774 0.023835406 0.07503186 0.1943255 -0.2289432 -0.092751846 -0.040932164
0.12837215 0.026968028 -0.13335474 -0.0318121 0.20484069 -0.008368792 -0.119607925 0.044055417
0.05609883 0.034736805 0.115872756 -0.06932318 0.16876802 -0.13201842 -0.15426023 0.1394295
0.0982959 0.23993124 -0.17636208 -0.14960279 0.087400734 -0.058543287 0.18225455 -0.1287335
0.027537158 -0.034853503 0.199655 -0.03028564 -0.11415581 0.06547323 -0.01333753 0.05094092
0.06386955 0.06882859 -0.032239042 0.13495986 0.122794025 -0.027109854 -0.118457414 -0.07035446
-0.00755647 0.061730593 -0.15935211 0.12475198 0.047623433 0.11142463 0.12043564 -0.027534684
0.16789334 0.21764942 0.16919945 0.11176369 0.09874175 -0.04228087 -0.02400816 0.19509718
0.13246985 -0.12446434 0.15150017 -0.05536499 0.044173226 -0.27175233 -0.18059398 0.20546979
-0.033626415 0.09662527 -0.25965098 -0.13176082 0.14331022 0.0948674 0.19016278 0.037386347
0.14464647 -0.113459 -0.2288971 0.17508 -0.13741559 0.10402461 0.20036246 0.05335905
-0.18922488 -0.07170007 -0.13080925 -0.30572596 0.24848174 0.07643022 0.23282818 -0.10175791
0.09014293 0.063628234 -0.035834555 -0.1322724 -0.031019526 0.17070459 0.17919773 -0.15001893
-0.2523882 0.14122482 0.26057822 0.09761537 -0.24947731 0.09548858 0.2669171 0.091927364
-0.11043555 0.093362436 0.20376907 -0.1822229 -0.17497234 -0.15330695 -0.14563835 0.18125677
-0.26812807 0.36756876 0.12282921 -0.20034872 -0.13475281 -0.16255152 0.056104068 0.16634229
0.23962387 -0.001065905 -0.18600564 0.1965093 0.2624961 -0.2411106 0.054577474 -0.2502052
0.052544076 -0.19107477 0.17065573 -0.14397277 -0.109616056 -0.15822594 -0.060892984 -0.12250656
-0.2729936 0.05739393 -0.024157481 0.23098777 0.17645851 -0.111320704 0.08252723 -0.17912374
0.13386399 0.02308938 -0.11056686 -0.049928557 -0.23641373 -0.21435533 -0.032183915 -0.23404504
-0.046073806 0.04194852 -0.21455823 -0.078510135 -0.1570098 0.1985318 -0.19673859 0.15954475
-0.07255011 -0.00046731345 0.029403191 -0.028541436 -0.043062977 0.045297176 -0.115855865 0.008692926
0.098514155 0.038224824 -0.0064028897 0.13587922 0.0013469099 0.0633448 -0.11235819 0.08340545
-0.018978592 -0.013512962 0.0034390413 0.09903615 -0.1248539 -0.019152377 -0.057572164 -0.11850113
0.162836 0.058061372 0.13564405 -0.015627334 0.13827826 0.09980958 -0.080225326 -0.029559778
-0.011294502 -0.0010348738 0.00014391472 0.05822537 0.062526815 -0.10106534 -0.019019648 0.13581699
-0.21419334 -0.07314218 0.12500083 0.02572057 -0.10764151 -0.010815386 0.094387695 -0.112098016
-0.071708955 -0.047838442 0.051131517 0.16348639 0.03357449 0.07462482 0.05876144 -0.16209844
00000000: e826 1ebd 5c4d 273d 4fa7 61bd 40de e2bd
00000010: a9d4 a83c 20db 99bd 1626 423e 34db 8e3d
00000020: 0fc7 2fbb 1415 683c 4e18 15be 588f 05be
00000030: 7725 533d ce27 34bd 781d 033e d437 3f3c
00000040: 5683 98bd 05e0 2ebe 4f14 59bd 30f2 4dbe
00000050: 40c8 4e3d d749 50bb d5ac 713d 2f33 b93d
00000060: 75b2 183d 852f 44be 719d 96bd 3447 b5bd
00000070: b9f0 d73c a9f5 67bd e6af b1bc 158a b83d
00000080: 4271 653c 3c2b 05be 7842 c33c 4eaa 993d
00000090: 44fd 463e 1670 6abe aef4 bdbd 7ca8 27bd
000000a0: fd73 033e 0eec dc3c 258e 08be 684d 02bd
000000b0: c2c1 513e 421d 09bc 00f5 f4bd 7473 343d
000000c0: e3c7 653d 2e48 0e3d b24e ed3d 50f9 8dbd
000000d0: 86d1 2c3e d62f 07be 65f6 1dbe 9bc6 0e3e
000000e0: 5c4f c93d 89b0 753e 4398 34be 7931 19be
000000f0: 28ff b23d 16cb 6fbd f0a0 3a3e b7d2 03be
00000100: 9b95 e13c 8cc2 0ebd 5c72 4c3e 9719 f8bc
00000110: 85ca e9bd d416 863d a885 5abc 6da7 503d
00000120: 0ace 823d 01f6 8c3d 160d 04bd eb32 0a3e
00000130: 6f7b fb3d 7c15 debc cd99 f2bd 0016 90bd
00000140: 449c f7bb 38d9 7c3d 332d 23be f77d ff3d
00000150: ca10 433d 9932 e43d f6a6 f63d 6b90 e1bc
00000160: 3bec 2b3e 7ddf 5e3e 9f42 2d3e 5de4 e43d
00000170: 1d39 ca3d b52e 2dbd c3ac c4bc 8ec7 473e
00000180: 2da6 073e 29e7 febd dc22 1b3e 66c6 62bd
00000190: fcee 343d 1f23 8bbe a1ed 38be ac66 523e
000001a0: dabb 09bd 78e3 c53d f9f0 84be 4fec 06be
000001b0: eabf 123e d749 c23d 08ba 423e 6d22 193d
000001c0: 341e 143e 315d e8bd 0064 6abe 2c48 333e
000001d0: acb6 0cbe db0a d53d d12b 4d3e 058f 5a3d
000001e0: 2bc4 41be 7cd7 92bd dcf2 05be 1d88 9cbe
000001f0: ff71 7e3e 7287 9c3d 836a 6e3e 7366 d0bd
00000200: db9c b83d 854f 823d 41c7 12bd 6b72 07be
00000210: a91c febc 2fcd 2e3e 9c7f 373e 909e 19be
00000220: 0739 81be 3d9d 103e 826a 853e 91ea c73d
00000230: fb76 7fbe 848f c33d 5ca9 883e 6a44 bc3d
00000240: 092c e2bd ce34 bf3d d7a8 503e a498 3abe
00000250: f32b 33be 7ffc 1cbe 3822 15be 609b 393e
00000260: 1548 89be f931 bc3e e18d fb3d 3728 4dbe
00000270: a4fc 09be e873 26be 61cd 653d a255 2a3e
00000280: f65f 753e d6b5 8bba 4378 3ebe bc39 493e
00000290: e465 863e b2e5 76be a18c 5f3d e51a 80be
000002a0: 7538 573d 1ba9 43be 60c0 2e3e 996d 13be
000002b0: 627e e0bd fb05 22be ec6a 79bd b8e4 fabd
000002c0: d1c5 8bbe e615 6b3d e9e5 c5bc 0f88 6c3e
000002d0: 8ab1 343e 1cfc e3bd 0904 a93d 376c 37be
000002e0: a413 093e f025 bd3c e170 e2bd e381 4cbd
000002f0: 7116 72be f77f 5bbe 48d3 03bd 81a9 6fbe
00000300: e3b7 3cbd 36d2 2b3d 27b5 5bbe ecc9 a0bd
00000310: 2dc7 20be ec4b 4b3e d775 49be b35f 233e
00000320: 2795 94bd c001 f5b9 f6de f03c bbcf e9bc
00000330: ce62 30bd 8889 393d d745 edbd c66c 0e3c
00000340: cac1 c93d a291 1c3d 55cf d1bb ec23 0b3e
00000350: cc8a b03a ebba 813d 0d1c e6bd 7ad0 aa3d
00000360: fe78 9bbc 7865 5dbc 8a61 613b 77d3 ca3d
00000370: 67b3 ffbd 72e5 9cbc cad0 6bbd b8b0 f2bd
00000380: 7bbe 263e c3d1 6d3d 46e6 0a3e e504 80bc
00000390: d198 0d3e f768 cc3d 2d4d a4bd 5927 f2bc
000003a0: 930c 39bc 9aa4 87ba d0e7 1639 ba7d 6e3d
000003b0: 0f0e 803d 58fb cebd 18cf 9bbc 9c13 0b3e
000003c0: 8055 5bbe 91cb 95bd 3800 003e f2b3 d23c
000003d0: 2773 dcbd 0433 31bc 564e c13d a593 e5bd
000003e0: 25dc 92bd 3ef2 43bd 486f 513d fa68 273e
000003f0: 6885 093d e6d4 983d d6af 703d 22fd 25be
